…
s://localhost:8080/"},"id":"cINqGvdI5g2c","executionInfo":{"status":"ok","timestamp":1681010762473,"user_tz":-330,"elapsed":447,"user":{"displayName":"Shrivathsa B J","userId":"14724916946708677833"}},"outputId":"547ae8cf-f395-4a5d-d74e-4f42c9a69d4f"},"execution_count":null,"outputs":[{"output_type":"stream","name":"stdout","text":["Model: \"sequential\"\n","_________________________________________________________________\n"," Layer (type)                Output Shape              Param #   \n","=================================================================\n"," conv2d (Conv2D)             (None, 126, 126, 128)     3584      \n","                                                                 \n"," max_pooling2d (MaxPooling2D  (None, 63, 63, 128)      0         \n"," )                                                               \n","                                                                 \n"," conv2d_1 (Conv2D)           (None, 61, 61, 64)        73792     \n","                                                                 \n"," max_pooling2d_1 (MaxPooling  (None, 30, 30, 64)       0         \n"," 2D)                                                             \n","                                                                 \n"," conv2d_2 (Conv2D)           (None, 28, 28, 32)        18464     \n","                                                                 \n"," max_pooling2d_2 (MaxPooling  (None, 14, 14, 32)       0         \n"," 2D)                                                             \n","                                                                 \n"," conv2d_3 (Conv2D)           (None, 12, 12, 16)        4624      \n","                                                                 \n"," max_pooling2d_3 (MaxPooling  (None, 6, 6, 16)         0         \n"," 2D)                                                             \n","                                                                 \n"," flatten (Flatten)           (None, 576)               0         \n","                                                                 \n"," dense (Dense)               (None, 256)               147712    \n","                                                                 \n"," dense_1 (Dense)             (None, 1)                 257       \n","                                                                 \n","=================================================================\n","Total params: 248,433\n","Trainable params: 248,433\n","Non-trainable params: 0\n","_________________________________________________________________\n","None\n"]}]},{"cell_type":"code","source":["# Train the model\n","\n","cnn_model = cnn.fit_gene
…
//localhost:8080/"},"id":"l3pd0G9CWx9D","executionInfo":{"status":"ok","timestamp":1681015669834,"user_tz":-330,"elapsed":573,"user":{"displayName":"Shrivathsa B J","userId":"14724916946708677833"}},"outputId":"683b9e6a-2cec-436b-b6a4-1cbb9b9b2268"},"execution_count":null,"outputs":[{"output_type":"stream","name":"stdout","text":["Model: \"sequential_1\"\n","_________________________________________________________________\n"," Layer (type)                Output Shape              Param #   \n","=================================================================\n"," conv2d_4 (Conv2D)           (None, 126, 126, 64)      1792      \n","                                                                 \n"," max_pooling2d_4 (MaxPooling  (None, 63, 63, 64)       0         \n"," 2D)                                                             \n","                                                                 \n"," dropout (Dropout)           (None, 63, 63, 64)        0         \n","                                                                 \n"," conv2d_5 (Conv2D)           (None, 61, 61, 64)        36928     \n","                                                                 \n"," max_pooling2d_5 (MaxPooling  (None, 30, 30, 64)       0         \n"," 2D)                                                             \n","                                                                 \n"," dropout_1 (Dropout)         (None, 30, 30, 64)        0         \n","                                                                 \n"," conv2d_6 (Conv2D)           (None, 28, 28, 128)       73856     \n","                                                                 \n"," max_pooling2d_6 (MaxPooling  (None, 14, 14, 128)      0         \n"," 2D)                                                             \n","                                                                 \n"," dropout_2 (Dropout)         (None, 14, 14, 128)       0         \n","                                                                 \n"," conv2d_7 (Conv2D)           (None, 12, 12, 128)       147584    \n","                                                                 \n"," max_pooling2d_7 (MaxPooling  (None, 6, 6, 128)        0         \n"," 2D)                                                             \n","                                                                 \n"," dropout_3 (Dropout)         (None, 6, 6, 128)         0         \n","                                                                 \n"," flatten_1 (Flatten)         (None, 4608)              0         \n","                                                                 \n"," dense_2 (Dense)             (None, 256)               1179904   \n","                                                                 \n"," dense_3 (Dense)             (None, 1)                 257       \n","                                                                 \n","=================================================================\n","Total params: 1,440,321\n","Trainable params: 1,440,321\n","Non-trainable params: 0\n","_________________________________________________________________\n","None\n"]}]},{"cell_type":"code","execution_count":null,"metadata":{"colab":{"base_uri":"ht
…
